cnn.pth (torch, 493015 bytes, 10 tensors)

conv1.weight f4 [32, 3, 3, 3]
0	0x3d0432fd	0.03227519
1	0x3cb45e6e	0.022017684
2	0xbdd1c98b	-0.102435194
3	0xbd2be817	-0.041969385
4	0xbd622780	-0.05521345
5	0x3e36fce2	0.17869905
6	0xbe3a35ea	-0.18184629
7	0xbe93e4dd	-0.28885546
8	0xbc76d75b	-0.015065993
9	0x3d9fcf72	0.07803239
10	0xbdc90c05	-0.09816746
11	0xbc8d6983	-0.017262226
12	0xbe5c1b74	-0.21494848
13	0xbe127c66	-0.14305267
14	0xbd06c888	-0.032906085
15	0xbdadcc25	-0.08486203
16	0xbe855ee6	-0.26048964
17	0xbd972c70	-0.07381523
18	0xbd6755f6	-0.056478463
19	0x3e6d3009	0.23162855
20	0x3d9834dc	0.07431957
21	0xbdfdc581	-0.123911865
22	0x3caa1cca	0.02076568
23	0x3e43195c	0.19052643
24	0x3cbb4133	0.022858238
25	0x3d347ba7	0.044063237
26	0x3de02706	0.10944943
27	0xbd9b8a6f	-0.075947635
28	0xbd37b1c7	-0.044847276
29	0x3d9805bf	0.07422971
30	0xbe5829ac	-0.21109647
31	0x3d8f0134	0.06982651
32	0x3e0be266	0.13660583
33	0xbe5023d4	-0.20326167
34	0xbda9e236	-0.082950994
35	0x3e8f7adb	0.2802342
36	0xbe414e0e	-0.18877432
37	0xbdc526c6	-0.09626536
38	0x3e9e8b92	0.3096586
39	0xbea27dd3	-0.3173662
40	0x3e338b3b	0.17533581
41	0x3e1a02fe	0.15040204
42	0xbea1e90f	-0.31623122
43	0x3db9b3d2	0.09067501
44	0x3dfb40f3	0.122682475
45	0xbe27f607	-0.16402446
46	0x3e85e0d2	0.26148087
47	0x3d897ebb	0.06713625
48	0xbd5c741e	-0.053821675
49	0xbdcfd859	-0.10148687
50	0x3e0e019a	0.13867798
51	0xbe5729cb	-0.21012037
52	0x3e3347e0	0.17507887
53	0x3d05a643	0.032629263
54	0x3e33e07c	0.17566103
55	0x3d55e12e	0.0522167
56	0x3e15b173	0.14618473
57	0xbd2d7d8a	-0.04235605
58	0xbe2288e0	-0.15872526
59	0x3e039824	0.12851006
60	0xbdd5eb62	-0.10445286
61	0xbe373b48	-0.17893708
62	0x3bb43f2c	0.0055006947
63	0xbe7b83c0	-0.24561977
64	0xbe0f6923	-0.1400495
65	0xbdc73d6f	-0.097285144
66	0xbe40b302	-0.18818286
67	0xbb00c671	-0.001964953
68	0xbe24b088	-0.16082966
69	0x3e2ffcc0	0.1718626
70	0xbca63b1b	-0.020291856
71	0xbe0c3e28	-0.13695586
72	0x3d78408c	0.06060843
73	0x3ce7cd1f	0.028296052
74	0xbddcb966	-0.107775494
75	0x3e6206e7	0.22072946
76	0x3e9b2065	0.30298153
77	0x3e70cdd8	0.23516023
78	0xbe038173	-0.1284235
79	0x3d9bd42d	0.07608829
80	0x3d17efe5	0.037094016
81	0xbcdfd6fe	-0.027324196
82	0xbdb33b5e	-0.08751558
83	0xbd347a0d	-0.04406171
84	0x3d4ac021	0.049499635
85	0xbd024bd9	-0.031810615
86	0x3e50cb73	0.2039011
87	0x3de134e5	0.10996417
88	0x3eaa4962	0.33259112
89	0x3e2e231a	0.17005578
90	0xbddb82af	-0.10718285
91	0x3dbc8358	0.09204739
92	0xbe161d54	-0.14659625
93	0xbe0e2efc	-0.1388511
94	0xbe3ddb39	-0.18540658
95	0xbc953ef5	-0.018218497
96	0x3c3cedfd	0.01153135
97	0x3d8bb95c	0.06822464
98	0xbde161ad	-0.11004958
99	0xbe012c39	-0.12614526
100	0x3c6c8a00	0.014437199
101	0x3e106593	0.14101247
102	0x3c375fc0	0.011192262
103	0x3c3d7274	0.011562932
104	0x39e3caae	0.00043447822
105	0x3e0cd32a	0.13752428
106	0x3df5586f	0.11979758
107	0xbced8992	-0.028996263
108	0xbe076f52	-0.13226059
109	0xbe5b7f75	-0.2143534
110	0x3e6d222f	0.23157571
111	0xbc50fca5	-0.012755548
112	0x3eb3041d	0.34964076
113	0x3cfbfb9e	0.030759629
114	0x3aef8248	0.001827308
115	0x3e37a0f5	0.17932494
116	0xbe989adb	-0.29805645
117	0xbd6b2543	-0.057408582
118	0xbe1e502d	-0.15460272
119	0x3cc978fe	0.024593826
120	0xbe68751a	-0.2270092
121	0x3e63f5f7	0.22261797
122	0x3dc8e0c3	0.09808495
123	0x3e1261ce	0.14295122
124	0xbc5d5bca	-0.013510654
125	0xbe7e24bb	-0.24818699
126	0xbe1db657	-0.15401588
127	0xbe84e2d1	-0.25954297
128	0x3da7bde8	0.081905186
129	0xbe4f1018	-0.20220983
130	0x3ea4fd8d	0.32224694
131	0x3db012f2	0.085973635
132	0x3df26293	0.11835208
133	0xbbe3d552	-0.00695292
134	0x3c9aafbe	0.018882629
135	0x3dbb803b	0.091553174
136	0x3d6a9031	0.057266418
137	0xbdb12f16	-0.08651559
138	0x3d41553f	0.047200438
139	0x3dd8ac11	0.10579694
140	0xbe20c821	-0.15701343
141	0x3d6d81b4	0.057985023
142	0x3d3da612	0.046300955
143	0xbdc5e989	-0.09663684
144	0x3d253be8	0.040340334
145	0xbd39e8c7	-0.04538801
146	0xbc6f9126	-0.014622008
147	0x3e5878b9	0.21139802
148	0x3bc55ce4	0.0060230363
149	0xbe983a98	-0.29732203
150	0x3e84e824	0.2595836
151	0xbe00cada	-0.12577382
152	0xbe22630d	-0.15858097
153	0x3ccac9ea	0.024754483
154	0x3deda874	0.116043955
155	0xbe438e34	-0.19097215
156	0x3eb0453e	0.34427828
157	0xbd1c485b	-0.03815494
158	0xbe8109ad	-0.25202695
159	0x3e4a4e5d	0.19756456
160	0x3dcbe0a4	0.09954956
161	0xbe98177f	-0.29705426
162	0x3e221716	0.15829119
163	0xbed33da9	-0.4125798
164	0xbe971c48	-0.29513764
165	0x3e2ff349	0.1718265
166	0xbeb29c2c	-0.34884775
167	0x3ea016a2	0.31267267
168	0xbdb9cdd0	-0.09072459
169	0x3e13c2cd	0.1442978
170	0x3eaddda2	0.33958155
171	0xbc0c9d78	-0.008582465
172	0xbe6ff110	-0.23431802
173	0xbd4adbb4	-0.04952593
174	0xbd81c6a3	-0.06336715
175	0xbe86acc1	-0.26303676
176	0x3e734ffc	0.2376098
177	0x3dfa845c	0.12232277
178	0x3d0b8141	0.034058813
179	0x3e52c2da	0.20582142
180	0x3e638eb4	0.22222406
181	0x3d6b3f1b	0.05743323
182	0xbdea086c	-0.114273876
183	0x3e5b2488	0.21400654
184	0xbde5ab66	-0.11214332
185	0x3bd5b089	0.006521289
186	0xbe33486e	-0.17508098
187	0xbe4bac2e	-0.198899
188	0x3dbdd699	0.09269447
189	0x3c0f02ac	0.008728664
190	0xbe35ac50	-0.17741513
191	0x3d5ac1ea	0.053407587
192	0x3da06071	0.07830895
193	0xbdf1d8a2	-0.118088976
194	0x3ea6cab1	0.32576516
195	0xbd715e66	-0.058927916
196	0xbee17f27	-0.44042322
197	0x3e5638da	0.20920125
198	0xbd933556	-0.071879074
199	0xbe1bc984	-0.15213591
200	0xbbdc3147	-0.0067197415
201	0x3e836720	0.25664616
202	0xbdabdbd5	-0.08391539
203	0x3ecff8f3	0.4061962
204	0x3d91f6fd	0.071271874
205	0xbee0b11d	-0.43885127
206	0x3cd26058	0.025680706
207	0x3ddbd6b6	0.10734312
208	0xbe7d4ab8	-0.24735534
209	0xbd87dba4	-0.0663369
210	0x3e8d2fdf	0.27575585
211	0xbe695fec	-0.22790498
212	0x3e803e52	0.25047547
213	0x3e9bfeda	0.30467874
214	0xbe9238f1	-0.28559068
215	0xbd86b472	-0.06577386
216	0x3ded9105	0.11599926
217	0x3e201551	0.15633132
218	0xbdcdd181	-0.10049725
219	0x3db6db0c	0.089284986
220	0xbe0dc4ba	-0.13844576
221	0xbe386bb4	-0.18009835
222	0x3dcab71f	0.09898209
223	0x3dbf1efa	0.0933208
224	0x3d881adc	0.06645748
225	0xbe1b42a0	-0.15162134
226	0xbd3ed5aa	-0.046590485
227	0x3e1572d6	0.14594588
228	0xbd1b2d60	-0.03788507
229	0x3df87aa7	0.12132769
230	0x3e0f1fb9	0.13976945
231	0xbda74acd	-0.08168564
232	0xbbf1ecfd	-0.0073829875
233	0x3d253cd3	0.04034121
234	0x3d608c7a	0.05482147
235	0x3e4db70a	0.20089355
236	0xbe0c0f0b	-0.13677613
237	0xbc804a06	-0.015660297
238	0x3e178aa2	0.14798978
239	0xbcbc95fc	-0.023020737
240	0xbe7f0af1	-0.24906518
241	0x3e1545ed	0.14577456
242	0xbd2e9101	-0.042618755
243	0xbebd3915	-0.36957613
244	0x3ea27334	0.31728518
245	0xbd9fbe6c	-0.07799992
246	0x3e4c6451	0.19960143
247	0x3e93f046	0.28894252
248	0xbe898293	-0.26857433
249	0x3e0fa66e	0.14028332
250	0xbe0f43bc	-0.13990682
251	0xbdde1157	-0.10843151
252	0xbdc5ee79	-0.09664626
253	0x3ea88f17	0.3292167
254	0xbbc5a5a4	-0.006031709
255	0x3e3b89e6	0.18314323

conv1.bias f4 [32]
0	0xbea77572	-0.3270679
1	0xbd53fafe	-0.051753037
2	0x3d970590	0.07374108
3	0xbe2062c8	-0.15662682
4	0xbdaa906c	-0.083283275
5	0xbd89668a	-0.06709011
6	0xbda6f48a	-0.08152111
7	0xbd6c4a7d	-0.057688225
8	0x3c978a7d	0.018498654
9	0xbd769a35	-0.060205657
10	0x3d628251	0.05530006
11	0xbd089098	-0.03334102
12	0xbd33826c	-0.043825552
13	0xbe36fe29	-0.17870392
14	0xbe20f359	-0.1571783
15	0xbd163188	-0.03666833
16	0xbd59a022	-0.05313123
17	0xbe25abad	-0.1617877
18	0xbbfb74e8	-0.0076738484
19	0xbe8f8690	-0.2803235
20	0xbc6dfc6d	-0.014525515
21	0xbdbe339c	-0.092871875
22	0xbe0de208	-0.13855755
23	0xbe3ea618	-0.18618047
24	0xbe1622a5	-0.14661653
25	0x3c98ffa5	0.018676588
26	0xbe238422	-0.15968373
27	0xbcb5b436	-0.022180658
28	0xbd8f0f5e	-0.06985353
29	0xbdbe11d5	-0.09280745
30	0xbe3b6776	-0.18301186
31	0xbcc7995f	-0.024365125

conv2.weight f4 [64, 32, 3, 3]
0	0xbdbb83a1	-0.091559656
1	0xbd05efde	-0.03269946
2	0x3d0ccc0d	0.034374285
3	0xbe139895	-0.14413674
4	0xbd73a912	-0.05948741
5	0x3dec330c	0.11533174
6	0x3e1cb47c	0.15303224
7	0x3df5aa87	0.11995416
8	0x3e03e1fc	0.12879175
9	0x3dc318f2	0.09526242
10	0xbd5748b2	-0.052559562
11	0xbe96b70f	-0.29436538
12	0x3e01ae54	0.12664157
13	0xbdff798c	-0.12474355
14	0xbcb08421	-0.021547379
15	0xbd93634c	-0.07196674
16	0x3cd51fe0	0.026016176
17	0x3db9c038	0.09069866
18	0x3d9a88c2	0.07545616
19	0xbbbe2632	-0.005802893
20	0x3da83c93	0.082146786
21	0x3d7dd75c	0.06197296
22	0xbab0403e	-0.001344688
23	0xbb087635	-0.002082241
24	0x3da0a05a	0.07843085
25	0x3d874008	0.0660401
26	0x3c4d9cfb	0.012549634
27	0x3cc8c2c2	0.02450693
28	0x3d9ce011	0.07659925
29	0xbd604218	-0.054750532
30	0x3d8d0438	0.0688557
31	0x3d9fe1da	0.0780675
32	0xbe95f8a9	-0.29291275
33	0x3d7246c2	0.05914951
34	0xbd08fb02	-0.033442505
35	0xbd353aa2	-0.04424537
36	0xbc9fa4cb	-0.01948776
37	0x3cad29ef	0.02113816
38	0xbb6840d6	-0.0035439036
39	0x3e1bee47	0.15227614
40	0x3d9ca95d	0.07649491
41	0x3e82415f	0.254405
42	0xbd0221d4	-0.031770542
43	0x3e551c6d	0.20811625
44	0x3e7d18b5	0.24716456
45	0xbd9cfb21	-0.076650865
46	0x3c3047d2	0.010759311
47	0x3d3aa4a0	0.045567155
48	0xbdfb516a	-0.12271388
49	0x3d4dbd59	0.050229404
50	0x3d5ebd7d	0.05437993
51	0x3d81ccf4	0.0633792
52	0x3cdd8bb4	0.027044155
53	0xb8caaaf6	-9.6639546e-05
54	0x3d177331	0.03697509
55	0xbcb50bab	-0.02210029
56	0xbd572464	-0.05252494
57	0x3dd66b81	0.104697235
58	0x3d3bc703	0.04584409
59	0x3e342440	0.17591953
60	0x3cbfbb9f	0.023404894
61	0x3e7e8ed4	0.24859172
62	0x3e307774	0.17233068
63	0xbcf8e651	-0.03038326
64	0xbe73adc0	-0.23796749
65	0xbd84abfe	-0.064781174
66	0x3da75de2	0.081722036
67	0xbd6d553c	-0.057942614
68	0x3d8642ef	0.06555735
69	0xbe153556	-0.14571127
70	0xbd9e8c68	-0.07741624
71	0xbdd8bac8	-0.10582501
72	0x3d6922e5	0.056918044
73	0xbb9003a9	-0.0043949676
74	0xbe3e07ce	-0.18557665
75	0x3c4d36b9	0.012525254
76	0x3c011938	0.007879548
77	0xbd54115d	-0.05177437
78	0xbddfeacb	-0.10933455
79	0x3cbaeca8	0.022817925
80	0xbe188399	-0.1489395
81	0xbe1453e3	-0.14485125
82	0x3e445df7	0.1917647
83	0x3e5373ba	0.20649615
84	0x3ca5a482	0.020220045
85	0x3e91fa22	0.2851115
86	0x3e89f7ca	0.2694686
87	0x3e2f144b	0.17097585
88	0x3e8a6693	0.27031383
89	0x3e0bd18e	0.13654158
90	0x3de5d8c2	0.11222984
91	0x3dd28f1c	0.10281202
92	0xbd0fefd2	-0.03514082
93	0x3c6e5a1c	0.014547851
94	0xbcc859d4	-0.024456896
95	0xbd2d0776	-0.042243443
96	0xbe845c6f	-0.2585177
97	0xbe366a95	-0.17814095
98	0xbdb9d59e	-0.09073947
99	0x3caba61e	0.020953234
100	0xbd53f5ac	-0.051747963
101	0xbd9dd860	-0.07707286
102	0x3d676989	0.05649713
103	0x3d5a4175	0.05328508
104	0xbd25c072	-0.040466733
105	0x3c27311b	0.010204579
106	0xbdf724b3	-0.12067547
107	0xbd1b7b82	-0.037959583
108	0xbd315742	-0.043296106
109	0xbdaf7cc4	-0.08568719
110	0xbe64fd21	-0.22362186
111	0xbd828e51	-0.06374801
112	0xbdb0bdce	-0.08629952
113	0xbe30977a	-0.17245284
114	0xbe1279a8	-0.1430422
115	0xbe14dff9	-0.14538564
116	0xbe827b1c	-0.2548455
117	0x3d471b50	0.04861003
118	0xbcb7d1e1	-0.022438945
119	0x3cd2c616	0.02572922
120	0xbd8761dd	-0.06610463
121	0xbd908b3e	-0.07057808
122	0xbdd3290f	-0.10310566
123	0x3e604ff2	0.21905497
124	0x3e59913e	0.21246812
125	0xbdfe487b	-0.12416168
126	0x3d9d6344	0.07684949
127	0x3e250b91	0.16117693
128	0x3e4959f6	0.19663224
129	0x3dd49691	0.10380281
130	0x3dffb56e	0.12485777
131	0x3c7a50d3	0.015278059
132	0x3bf94019	0.007606518
133	0xbde033f1	-0.10947407
134	0xbe026a98	-0.12735975
135	0x3d807eed	0.06274209
136	0xbccd11f8	-0.025032982
137	0x3e18e026	0.14929256
138	0xbc2bcec1	-0.010486306
139	0x3dd531d5	0.10409895
140	0x3ee9cd3d	0.45664397
141	0x3e4a1cdc	0.19737571
142	0x3eab6a1e	0.33479398
143	0x3db9f5f5	0.09080116
144	0x3dc32e1f	0.09530281
145	0xbe031a26	-0.12802944
146	0xbe788d61	-0.24272682
147	0xbb592be5	-0.0033137735
148	0x3ddbf3e1	0.107398756
149	0xbbcd8c4b	-0.0062728277
150	0xbd574592	-0.05255658
151	0x3dfc716f	0.12326323
152	0x3e804da2	0.2505923
153	0xbc8fbb24	-0.01754529
154	0x3c657475	0.014004816
155	0x3dc8142a	0.09769471
156	0x391a857b	0.0001473631
157	0x3d542112	0.05178935
158	0xbd34b907	-0.04412177
159	0xbcdb71c4	-0.026787646
160	0xbd6eac61	-0.058269862
161	0xbd577b40	-0.052607775
162	0xbc85b776	-0.016322833
163	0xbe46bdb5	-0.19408305
164	0xbe082e49	-0.13298906
165	0x3d1c4c06	0.03815844
166	0x3ddf7720	0.10911393
167	0x3c0b06c1	0.008485497
168	0xbdae11aa	-0.08499463
169	0x3df51f8a	0.11968906
170	0x3e04dee9	0.12975658
171	0xbe3c46a0	-0.18386316
172	0x3bd492fe	0.0064872494
173	0x3d53dba7	0.05172315
174	0xbd9ca853	-0.07649293
175	0x3da1a3ec	0.07892594
176	0x3e28a010	0.16467309
177	0x3df3afbe	0.118987545
178	0x3e330339	0.17481698
179	0xbc6cbfa4	-0.014449988
180	0x3c1a72c8	0.00942678
181	0x3d443758	0.047904342
182	0xbd6bfd3a	-0.057614543
183	0x3d331e53	0.04373009
184	0x3dca52ee	0.09879099
185	0x3e62c0be	0.22143838
186	0xbb810b9e	-0.0039381525
187	0x3e0c4599	0.13698424
188	0x3d8cdc3e	0.06877945
189	0x3d329efb	0.043608647
190	0x3c218b09	0.009859809
191	0x3dcd2ab3	0.1001791
192	0x3d953843	0.07286122
193	0x3db89f04	0.09014705
194	0xbb52b76f	-0.0032152792
195	0x3dfe6177	0.12420934
196	0x3e0bd97f	0.13657187
197	0xbe0fea02	-0.1405411
198	0xbd819105	-0.063264884
199	0xbe2573ef	-0.16157506
200	0xbe70b1d5	-0.23505338
201	0xbe8a98e4	-0.2706977
202	0xbe316d61	-0.17326881
203	0xbe7947aa	-0.24343744
204	0xbd3486b7	-0.044073787
205	0x3e229858	0.15878427
206	0x3dc639a3	0.09678962
207	0x3dea7c43	0.11449482
208	0x3d90f9d3	0.070789
209	0xbd5834e3	-0.05278481
210	0xbd122d98	-0.035688013
211	0xbb68225b	-0.0035420868
212	0xbd8cf1d5	-0.06882063
213	0xbe365082	-0.17804149
214	0x3ce4b64a	0.027918953
215	0xbbdde7f8	-0.0067720376
216	0x3dd4ed82	0.103968635
217	0x3dc24aa0	0.0948689
218	0xbe649f6c	-0.2232644
219	0x3d404a02	0.04694558
220	0xbb4372ec	-0.0029823137
221	0xbe5487e3	-0.20754962
222	0x3dcdf396	0.10056226
223	0xbcd302c7	-0.02575816
224	0xbe0884c8	-0.13331902
225	0x3d3f6e0f	0.04673582
226	0x3d7e8c1d	0.06214534
227	0x3da7959f	0.08182835
228	0xbcb71ba4	-0.022352047
229	0x3df2732c	0.118383735
230	0xbcef6904	-0.02922488
231	0x3db29143	0.08719113
232	0xbd1aa703	-0.03775693
233	0xbdf0dada	-0.117604926
234	0xbe072b0d	-0.13200016
235	0xbdc5ba6b	-0.09654697
236	0xbd67d320	-0.05659783
237	0xbd9ee1fd	-0.077579476
238	0x3dc181e2	0.09448601
239	0xbdbcedb4	-0.09225026
240	0x3e2d6255	0.16932042
241	0x3dcd9d7b	0.10039803
242	0xbe1037f7	-0.14083849
243	0x3d738f9f	0.05946314
244	0x3cf5aa9c	0.02998858
245	0xbdf8c06c	-0.121460766
246	0x3d20b6cc	0.03923683
247	0x3cb7ce88	0.022437349
248	0xbb96191c	-0.00458063
249	0x3cf3da9c	0.029767327
250	0xbd02e6ed	-0.03195851
251	0xbda205f0	-0.07911289
252	0xbca9f1bf	-0.020745156
253	0xbcd22b39	-0.025655376
254	0xbd263f5a	-0.04058776
255	0xbd134f54	-0.035964325

conv2.bias f4 [64]
0	0xbe341e2f	-0.17589639
1	0x3e0c271f	0.13686799
2	0x3c9ceab3	0.019154882
3	0xbd4fe453	-0.050754856
4	0x3e7cd860	0.24691916
5	0xbd9f77ff	-0.07786559
6	0xbcc63eb9	-0.02419983
7	0xbdfb993b	-0.12285086
8	0xbe52ce64	-0.20586544
9	0xbd9f38ab	-0.077744804
10	0xbe69a76c	-0.22817773
11	0xbe45fba1	-0.1933427
12	0x3c4fa48f	0.012673511
13	0xbe326f10	-0.1742518
14	0xbcbbd323	-0.022927826
15	0x3c130481	0.008973242
16	0x3c56b57d	0.013104794
17	0x3e0f44bb	0.13991062
18	0xbe1e55b9	-0.15462388
19	0x3de95467	0.113930516
20	0x3e0e3787	0.1388837
21	0x3cd4ee9a	0.02599268
22	0x3deafa7a	0.11473556
23	0x3ca52fda	0.020164419
24	0xbe721e40	-0.23644352
25	0xbd4bd686	-0.049765132
26	0x3c89da9a	0.01682787
27	0xbc9ef7e9	-0.019405322
28	0xbe122c17	-0.14274631
29	0xbdd795f0	-0.10526645
30	0xbde014c8	-0.10941464
31	0xbcc1770c	-0.023616336
32	0xbd9f8783	-0.07789519
33	0xbe256b3a	-0.16154185
34	0x3e0c19f4	0.13681775
35	0xbd3ad17e	-0.045609944
36	0x3d075740	0.033042192
37	0x3e469d96	0.19396052
38	0x3e2eeddc	0.17082924
39	0xbe86aa5e	-0.26301855
40	0x3eac81f4	0.33692896
41	0x3d4ea54d	0.05045061
42	0x3e80747f	0.2508888
43	0x3dc9d5e2	0.09855248
44	0xbe31c849	-0.17361559
45	0xbd9fcb2d	-0.078024246
46	0xbdacbf6f	-0.084349506
47	0xbccf71f6	-0.025322895
48	0x3e2befac	0.16790646
49	0x3cb88763	0.022525495
50	0x3d4b3fc7	0.04962137
51	0x3deac29b	0.11462899
52	0x3ec2822e	0.37989944
53	0xbb7af251	-0.0038291404
54	0x3b32f34e	0.0027305665
55	0x3d82c1af	0.063845985
56	0xbd0910b9	-0.033463214
57	0x3ee35ebb	0.4440821
58	0x3dbfff51	0.093748696
59	0x3e80577f	0.25066754
60	0xbc69d604	-0.014272217
61	0x3e8dd54c	0.27701795
62	0x3e6d394a	0.23166385
63	0xbc9913db	-0.018686226

conv3.weight f4 [64, 64, 3, 3]
0	0xbd1cb782	-0.038260944
1	0xbd49c55e	-0.04926049
2	0xbc4ed3ec	-0.012623768
3	0xbd2bb4b4	-0.04192038
4	0xbcbf9424	-0.023386069
5	0xbd53f075	-0.05174299
6	0x3cae5b94	0.021283902
7	0xbd1fac2a	-0.038982548
8	0xbc8b6901	-0.017017843
9	0xbbbe24da	-0.005802733
10	0xbd104b99	-0.035228346
11	0xbd0c6bfc	-0.03428267
12	0x3c0556a9	0.008138337
13	0xbca257c1	-0.019817235
14	0x3cc6f2cc	0.024285696
15	0xbc24726e	-0.010037048
16	0x3d1c5c36	0.038173877
17	0xbccd9a1c	-0.0250979
18	0xbcac9056	-0.021064918
19	0xbd2764ef	-0.040867742
20	0xbcad9ae6	-0.021192025
21	0x3d03addc	0.032148227
22	0xbcd9a1cd	-0.02656641
23	0xbdae9e87	-0.085263304
24	0x3d376c6d	0.044781137
25	0xbb97780a	-0.004622464
26	0xbdad1f30	-0.08453214
27	0xbcf7657d	-0.03019976
28	0xbbb50f5e	-0.0055255136
29	0xbc831948	-0.016003266
30	0xbc5a182f	-0.01331143
31	0xbd2a4831	-0.041572753
32	0xbb25cc44	-0.0025298754
33	0xbc9aef9c	-0.018913083
34	0xbd917404	-0.07102206
35	0xbc8b71af	-0.017021982
36	0xbd00296c	-0.031289503
37	0xbc7859c7	-0.015158123
38	0xbb0852d4	-0.0020801323
39	0xb9df6e79	-0.00042616183
40	0xbd0ead85	-0.03483345
41	0x3cb702fa	0.022340287
42	0xbc0fa295	-0.00876679
43	0x3c4cfa01	0.012510777
44	0x3c98a313	0.018632447
45	0xbcc2aa14	-0.02376274
46	0xbd2d7a7c	-0.04235314
47	0xbd7fce68	-0.062452704
48	0xbd1522e4	-0.036410227
49	0x3bb76183	0.005596341
50	0xbdec8625	-0.115490235
51	0xbd5e9b7e	-0.054347508
52	0xbd3833ef	-0.044971403
53	0x3c4946df	0.012284963
54	0x3d1ce223	0.0383016
55	0xbcf9d0a9	-0.030495005
56	0x3d194995	0.03742369
57	0x3bca02fa	0.0061649056
58	0x3cbbae88	0.022910371
59	0xbcce1a97	-0.025159163
60	0x3b045d8d	0.0020197362
61	0xbc5e8b55	-0.013583024
62	0xbca3b3ae	-0.019983139
63	0xbd77e241	-0.060518507
64	0xbd5efe71	-0.054441873
65	0xbb85f413	-0.004087934
66	0xbc8cbfa1	-0.01718122
67	0xbd923732	-0.07139434
68	0xbd4711d1	-0.048600975
69	0xbc8fbcb9	-0.017546045
70	0xbd286535	-0.041112144
71	0xbc90fb6a	-0.017698009
72	0xbb4f1ec2	-0.0031604026
73	0x3cd578f1	0.026058646
74	0xbc9f4431	-0.019441696
75	0xbd1fd055	-0.03901704
76	0xbd19a70a	-0.037512816
77	0xbc650f19	-0.01398065
78	0xbcc69fcd	-0.02424612
79	0xbc8d84c2	-0.017275218
80	0x3c750130	0.014953896
81	0xbcc4ceb9	-0.024024354
82	0x3d2ba6ab	0.041906994
83	0x3c025fb1	0.007957385
84	0xbd3a10c3	-0.04542614
85	0x3d0deaf1	0.034647886
86	0xbd0c8f82	-0.034316547
87	0xbc8c9eaa	-0.0171655
88	0xbc668ed7	-0.014072142
89	0x3c4d5d89	0.012534508
90	0x3d32aaa4	0.043619767
91	0xbaec0e6b	-0.0018009668
92	0x3d1b2701	0.037878994
93	0xbd12d219	-0.035844896
94	0xbced70c5	-0.028984437
95	0xbc868b06	-0.016423713
96	0xbc2e2fa3	-0.010631475
97	0xbba27885	-0.0049582147
98	0xbd1991e2	-0.03749264
99	0xbba33f17	-0.004981886
100	0xbb05653f	-0.0020354537
101	0xbc8b1a3e	-0.016980287
102	0xbd29683e	-0.04135918
103	0x3c392216	0.011299631
104	0x3c223199	0.00989952
105	0x3cbb4a41	0.022862555
106	0xbd28ad60	-0.04118097
107	0xbc97dded	-0.01853844
108	0xbd8dd736	-0.06925814
109	0xbd7e8d06	-0.06214621
110	0x3b95f2d0	0.0045760646
111	0x38967ca3	7.175773e-05
112	0x3c11e343	0.008904281
113	0xbd4aa861	-0.049476985
114	0xbc1d33d1	-0.0095948735
115	0xbce3e750	-0.02782026
116	0xbc967ea8	-0.018370941
117	0xbd73df73	-0.05953927
118	0xbcb24dc5	-0.021765599
119	0xbc133bb0	-0.008986399
120	0xbc7521a2	-0.014961632
121	0xbaa3eb12	-0.001250597
122	0xbd3e7696	-0.04649981
123	0xbd25b553	-0.040456127
124	0xbd7a30d4	-0.061081722
125	0xbced026c	-0.028931819
126	0xbd309672	-0.043112226
127	0x3cc46269	0.023972707
128	0x3b3289b8	0.0027242731
129	0x3bf9b96c	0.007620981
130	0xbb976518	-0.0046202056
131	0x3c8e5eac	0.017379127
132	0x3d1461b3	0.036225986
133	0xbcc1f9eb	-0.02367874
134	0x3c65f0bd	0.014034447
135	0xbd0e10a9	-0.034683857
136	0xbd7e74c2	-0.062123068
137	0xbccf599a	-0.02531128
138	0xbd047b46	-0.032344125
139	0xbc485d03	-0.012229207
140	0xbd9e5b6f	-0.07732283
141	0xbba92e0c	-0.00516296
142	0xbd096d06	-0.03355124
143	0x3bc65a80	0.006053269
144	0xbd500f02	-0.050795563
145	0xbd194e5d	-0.03742825
146	0xbb4ff98e	-0.003173444
147	0x3aab8546	0.0013085983
148	0x3ab34f3c	0.001368023
149	0xbcd58747	-0.026065482
150	0xbc10da6a	-0.0088411365
151	0xbd014ecd	-0.03156929
152	0x3c94b4a1	0.018152537
153	0xbd3ac714	-0.045600012
154	0xbd3b1613	-0.04567535
155	0xbd3b205c	-0.045685157
156	0xbaa885c6	-0.001285725
157	0xbcf585e9	-0.02997108
158	0xbc124afc	-0.0089290105
159	0xbd3b7dcb	-0.045774262
160	0xbb2fb37c	-0.0026809862
161	0xbb8a1751	-0.0042142053
162	0xbd84faa2	-0.06493117
163	0xbc52241a	-0.01282599
164	0xbc94e5c0	-0.01817596
165	0x3d0533a2	0.032519944
166	0xbcd0c15f	-0.025482832
167	0xbb0c2e10	-0.002138976
168	0xbcf54646	-0.029940736
169	0xbd442752	-0.04788906
170	0xbd1aa1cc	-0.037751958
171	0xbd68aa41	-0.05680299
172	0xbccad1fb	-0.02475833
173	0xbc598d17	-0.013278267
174	0xbd80dab2	-0.06291713
175	0xbcb3ba3b	-0.021939388
176	0xbd23224c	-0.03982763
177	0xbd75e002	-0.060028084
178	0x3c733f20	0.014846593
179	0xbd07bd94	-0.03313978
180	0xbc850796	-0.016238969
181	0xbc91b9cd	-0.017788792
182	0xbc0151c0	-0.007893026
183	0xbcbe45b8	-0.023226604
184	0xbd8b2613	-0.067943715
185	0xbd6fbf25	-0.0585319
186	0xbd3a4dbe	-0.045484297
187	0xbbc496a5	-0.0059994035
188	0xbb5b62a4	-0.0033475542
189	0x3c71ec23	0.014765772
190	0x3ad59848	0.0016295994
191	0x3d40462d	0.046941925
192	0xbd5f90a9	-0.054581318
193	0x3b89c797	0.004204701
194	0xbd77560a	-0.060384788
195	0xbcd50e52	-0.026007805
196	0x3ca52517	0.020159287
197	0x3c97d09a	0.018532086
198	0xbc8eb12c	-0.017418467
199	0xbc12255a	-0.008920038
200	0xbb6a6aae	-0.0035769152
201	0xbb89d37a	-0.004206118
202	0xbc72b5e2	-0.014813872
203	0x3ca2043c	0.01977741
204	0xbc856b4b	-0.016286513
205	0xbcabcb8f	-0.020971088
206	0xbd39eeca	-0.045393743
207	0xbd0d4200	-0.03448677
208	0xbd0ad4d2	-0.033894368
209	0xbcbc5325	-0.022988865
210	0xbd3bd0c0	-0.045853376
211	0xbd631cf2	-0.055447526
212	0xbd0aaf60	-0.033858657
213	0xbd843dd0	-0.06457102
214	0xbd4a2369	-0.049350176
215	0xbd2264cc	-0.03964691
216	0xbd9da215	-0.0769693
217	0xbd1d04f5	-0.038334806
218	0x3cbbefd6	0.022941511
219	0x3cd43c23	0.025907582
220	0xbd19d472	-0.03755612
221	0xbcddd891	-0.027080806
222	0xbd448f53	-0.047988247
223	0xbbff9b16	-0.00780047
224	0xbd254d08	-0.040356666
225	0x3ceb2cef	0.02870795
226	0x3c5d7cd1	0.013518528
227	0x3bdcc59a	0.006737423
228	0x3a9c50a8	0.0011925893
229	0x3d11b734	0.035575107
230	0xbb753287	-0.003741415
231	0xbd16b8f3	-0.036797475
232	0xbd1d3407	-0.038379695
233	0xbcdbe103	-0.026840692
234	0xbd82a1a6	-0.06378488
235	0xbd470ca2	-0.048596032
236	0xbcefd3d9	-0.029275822
237	0xbc50c9d2	-0.01274343
238	0xbce9ae0d	-0.028525377
239	0xbd83d7f5	-0.06437675
240	0xbb86ae0f	-0.004110105
241	0xbd276a56	-0.040872894
242	0xbd0c1357	-0.03419813
243	0xbc884de6	-0.016638707
244	0xbd2a699c	-0.041604623
245	0xbb41e04c	-0.0029583154
246	0x3aab22c3	0.0013056624
247	0xbc10d5a9	-0.008840003
248	0x3b67713d	0.0035315298
249	0x3d1d05dd	0.03833567
250	0x3c314c92	0.010821478
251	0xbcad62e2	-0.021165315
252	0x3c8a5f87	0.016891254
253	0xbd4c7793	-0.049918722
254	0xbc2e3baf	-0.010634347
255	0x3c16aea1	0.009196908

conv3.bias f4 [64]
0	0xbd2aeeca	-0.041731633
1	0xbdafedee	-0.08590303
2	0x3e9a1876	0.30096787
3	0x3c7153f4	0.014729489
4	0xbd8ecf5e	-0.06973146
5	0xbd8eaeed	-0.06966958
6	0xbbafb215	-0.005361805
7	0x3bd617a3	0.0065335794
8	0x3dd325b0	0.10309923
9	0xbc51dae5	-0.012808536
10	0xbd6371a0	-0.055528283
11	0xbcd9ae1c	-0.02657228
12	0x3eb2a633	0.34892425
13	0x3eb5fa71	0.35542634
14	0xbd7ecf1b	-0.06220923
15	0xbd4fe8f4	-0.05075927
16	0xbd032ce5	-0.032025237
17	0x3e92258f	0.2854428
18	0x3e3070bf	0.17230509
19	0xbd1baacc	-0.03800468
20	0xbe0bded5	-0.13659222
21	0x3db2792f	0.0871452
22	0x3e1cc8ec	0.1531102
23	0xbdbfb7ab	-0.09361204
24	0xbdaed1c8	-0.08536106
25	0x3e4699bd	0.19394584
26	0xbcdf308b	-0.027244827
27	0x3c292a92	0.010325091
28	0xbcd2ac29	-0.025716858
29	0xbd85f660	-0.06541133
30	0x3e7eb20a	0.24872604
31	0x3c62e5d0	0.013848737
32	0x3e8d844e	0.27640003
33	0xbd63036b	-0.05542318
34	0x3d94de68	0.07268983
35	0xbd8233ce	-0.06357537
36	0x3d792e35	0.060835082
37	0x3dd88ab8	0.105733335
38	0x3d275a3e	0.040857546
39	0x3d835d4c	0.06414279
40	0x3e331943	0.17490105
41	0x3dc6561e	0.09684394
42	0x3e86817d	0.26270667
43	0x3ec2c8ae	0.3804373
44	0xbd2730c7	-0.040818002
45	0x3e384c42	0.1799784
46	0x3e5b7407	0.2143098
47	0x3e4791f2	0.19489267
48	0xbd297f67	-0.041381266
49	0x3bc4c31c	0.006004704
50	0xbd9618af	-0.07328927
51	0x3e456ec8	0.19280541
52	0xbd96033c	-0.07324836
53	0xbd7452d7	-0.059649315
54	0x3ded48fd	0.11586187
55	0x3ea9cb03	0.33162698
56	0x3e8517b8	0.25994658
57	0xbb8db710	-0.0043248013
58	0x3e87ac78	0.2649877
59	0x3e1bf2ee	0.15229389
60	0x3d625daf	0.055265125
61	0x3e418048	0.18896592
62	0x3e07852f	0.132344
63	0x3e8c48e0	0.2739935

fc1.weight f4 [64, 1024]
0	0x3c96db3a	0.018415082
1	0x3cc279ef	0.023739783
2	0xbc8c1d0a	-0.01710369
3	0xbcb52445	-0.022112021
4	0xbc440e60	-0.011966318
5	0x3c8c7944	0.017147668
6	0x3d0b385a	0.033989288
7	0xbcd435bb	-0.025904527
8	0x3cb08a74	0.021550395
9	0xbb6ec55f	-0.003643356
10	0x3c223e50	0.009902552
11	0x3c240e21	0.010013134
12	0x3d0bf7d6	0.0341719
13	0xbc4d625d	-0.012535659
14	0x3cbe1e82	0.023207907
15	0x3c1e4c27	0.009661711
16	0x3e805cbb	0.25070748
17	0x3d8e3f45	0.069456615
18	0x39a9b98e	0.0003237244
19	0x3bd9b642	0.0066440413
20	0x3db3d259	0.08780355
21	0xbdcc5b8d	-0.099783994
22	0xbc30abdd	-0.010783163
23	0x3bd44322	0.0064777294
24	0x3d6a5bd6	0.057216488
25	0xbe184101	-0.14868547
26	0xbe410364	-0.1884895
27	0xbe616ac6	-0.22013387
28	0xbde9f3d2	-0.11423458
29	0xbe2b0d19	-0.16704215
30	0xbe7c1eb4	-0.24621087
31	0xbe109351	-0.14118697
32	0xbe702081	-0.234499
33	0x3de78f9c	0.11306688
34	0xbd843ab5	-0.0645651
35	0x3d2fd4f0	0.042927682
36	0xbd4e5d2e	-0.05038183
37	0x3d616aac	0.05503337
38	0xbdeedae0	-0.11662841
39	0x3d4a12a4	0.049334183
40	0xbe03e403	-0.12879948
41	0xbd1e7725	-0.038687844
42	0xbcf7812f	-0.030212967
43	0x3db513e0	0.088416815
44	0xbe7f0f34	-0.24908143
45	0xbe60ca0d	-0.21952076
46	0x3d8d8828	0.06910735
47	0xbd753eff	-0.05987453
48	0x3d199d8d	0.037503768
49	0x3cab31ce	0.020897772
50	0x3d39ecfe	0.04539203
51	0x3bfcb8f4	0.007712478
52	0xbc89a7c1	-0.016803624
53	0xbd6dd3c4	-0.058063284
54	0xbbc8df95	-0.0061301687
55	0xbb8e02f7	-0.0043338495
56	0xbc00fc0d	-0.007872594
57	0xbcefc159	-0.029267
58	0xbd51af9d	-0.05119287
59	0xb9f9eadb	-0.00047667962
60	0xb8f008b5	-0.000114457136
61	0xbcaad0d5	-0.020851532
62	0x3c47940e	0.012181295
63	0x3c50d435	0.012745907
64	0x3d2f21e9	0.04275695
65	0x3dcc8969	0.099871464
66	0x3e12f11e	0.14349791
67	0x3d3595f6	0.044332467
68	0xbd647703	-0.05577756
69	0xbe1fe472	-0.15614489
70	0x3d39c285	0.045351524
71	0x3d9053d9	0.07047243
72	0xbd54e62b	-0.051977318
73	0x3cba3876	0.022732
74	0x3c9c4e17	0.019080205
75	0x3e1157b2	0.1419361
76	0x3d3db313	0.046313357
77	0x3da95397	0.082678966
78	0x3e093fa8	0.13403189
79	0x3e850475	0.25979963
80	0xbe204318	-0.15650594
81	0xbd9859d5	-0.07439009
82	0xbd4411fc	-0.047868714
83	0xbc82c950	-0.015965134
84	0x3c5ede15	0.013602753
85	0xbbcb6881	-0.006207526
86	0xbd88014c	-0.06640872
87	0xbdc07cfb	-0.09398838
88	0x3bffc31d	0.0078052417
89	0x3d608eec	0.0548238
90	0x3db425db	0.08796283
91	0xbd4987a7	-0.049201634
92	0x3dce1a66	0.10063629
93	0x3e22ae3c	0.15886778
94	0xbc4922e6	-0.012276387
95	0x3d98d144	0.07461789
96	0xbcfba8c2	-0.030720118
97	0xbd7336f7	-0.05937859
98	0x3e211208	0.15729535
99	0x3e0d910f	0.13824867
100	0xbe139b77	-0.14414774
101	0xbe023617	-0.12715946
102	0xbc915cb9	-0.017744409
103	0x3d9ca2b7	0.07648223
104	0xbe6ed0df	-0.23321865
105	0xbd16ba6e	-0.036798887
106	0x3e621110	0.22076821
107	0x3d6f4403	0.05841447
108	0x3a4947d2	0.00076782436
109	0x3d4e3020	0.050338864
110	0xbdcaff06	-0.09911923
111	0xbe5546c5	-0.20827778
112	0xbeacc1bd	-0.3374156
113	0x3d7ef80b	0.06224827
114	0xbe9dcf5b	-0.30822262
115	0xbe5f0519	-0.21779288
116	0x3bc22f40	0.005926043
117	0x3de8dc95	0.11370198
118	0xbe0b4abf	-0.13602732
119	0xbd873fbf	-0.066039555
120	0xbdc81bba	-0.097709134
121	0x3cf25a70	0.02958414
122	0xbd8e7301	-0.06955529
123	0xbcf0f738	-0.029414758
124	0xbe249bc7	-0.1607505
125	0xbdd228a0	-0.10261655
126	0xbde7c6fc	-0.1131725
127	0x3b38d4c6	0.0028202995
128	0xbd2452ef	-0.040118154
129	0xbd2db0b6	-0.042404853
130	0xbdb8adf1	-0.09017552
131	0xbd95c1e7	-0.073123746
132	0x3da9fc01	0.08300019
133	0x3e159280	0.14606667
134	0x3c0dd62b	0.008657019
135	0x3c0ddf77	0.008659235
136	0x3e07d1ad	0.13263579
137	0x3e81444b	0.25247416
138	0xbd14e1a7	-0.03634801
139	0xbe538b4a	-0.20658603
140	0xbd8d6e35	-0.06905786
141	0x3dce27c1	0.10066176
142	0x3d1a3082	0.037643917
143	0xbf0acb53	-0.542165
144	0x3cf262b2	0.029588077
145	0x3cb93e0c	0.022612594
146	0x3cbbc982	0.022923235
147	0xbc8ee2df	-0.017442165
148	0x3c5614ea	0.01306651
149	0xbce095bb	-0.027415147
150	0x3ca08663	0.01959533
151	0x3bb2b480	0.005453646
152	0x3d07d602	0.033163078
153	0x3d02a4a0	0.03189528
154	0x3d224b4d	0.039622594
155	0x3cfba701	0.030719282
156	0x3d9de8b4	0.077104
157	0xbc206e64	-0.009791944
158	0x3c61221b	0.0137410415
159	0x3caae61c	0.020861678
160	0xbb2d5cb5	-0.0026452963
161	0xbc378614	-0.0112014
162	0x3cf75e68	0.030196384
163	0xbc187d3d	-0.009307203
164	0x3d182346	0.037143014
165	0x3c96c419	0.018404054
166	0xbc89c3dd	-0.016817028
167	0x3d1f32a4	0.038866654
168	0xbd322589	-0.043492828
169	0x3d408533	0.04700203
170	0x3d101efa	0.03518579
171	0xbcb49b21	-0.022046627
172	0x3c3d185e	0.011541454
173	0x3d2472ef	0.04014867
174	0xbca2603e	-0.019821282
175	0xbc354f3f	-0.011066257
176	0xbc4daf9a	-0.012554074
177	0x3caa0f5b	0.020759275
178	0x3c280e78	0.010257356
179	0x3c85b698	0.016322419
180	0xbccb0781	-0.024783852
181	0x3d07eaa9	0.033182774
182	0x3caabf96	0.020843308
183	0x3bc71c20	0.006076351
184	0xbce2bdca	-0.02767839
185	0xbd1deebc	-0.038557753
186	0xbabff198	-0.0014644144
187	0x3cde6666	0.027148437
188	0xbc649831	-0.013952301
189	0xbca0eb7b	-0.019643536
190	0xbc98ab40	-0.018636346
191	0xbcacccda	-0.021093775
192	0x3e092aa2	0.1339517
193	0x3ce912f3	0.028451419
194	0xbcc1f792	-0.023677621
195	0x3d6bdc40	0.057583094
196	0x3dd4a194	0.10382381
197	0x3e448b43	0.19193749
198	0xbc72d609	-0.014821538
199	0x3d82c974	0.063860804
200	0x3e03e669	0.12880863
201	0x3dee99b4	0.1165041
202	0xbcb814f3	-0.022470927
203	0xbd770383	-0.060306083
204	0x3e46823d	0.1938562
205	0x3e26a324	0.1627317
206	0xbe007da3	-0.12547927
207	0xbe4d745a	-0.20063916
208	0x3e2bb6b4	0.16768914
209	0x3db4e747	0.08833175
210	0x3ddc942d	0.1077045
211	0x3e06a77e	0.1314983
212	0x3ddfbfe7	0.10925274
213	0x3da99177	0.08279698
214	0xbb08d196	-0.0020876876
215	0x3df70e36	0.120632574
216	0x3e054493	0.1301444
217	0xbdbeb67f	-0.09312152
218	0xbcf1869f	-0.029483138
219	0x3df4657a	0.119334176
220	0xbd90991f	-0.070604555
221	0xba70f8d5	-0.00091923523
222	0x3e44c22d	0.19214697
223	0x3d5dd1d7	0.054155197
224	0x3ddd76cf	0.108136766
225	0x3dc60149	0.09668214
226	0x3cbbdada	0.022931505
227	0xbe052bf6	-0.13005051
228	0x3e556839	0.20840539
229	0xbcebd57e	-0.028788324
230	0x3dd23c21	0.10265375
231	0xbde6aacd	-0.112630464
232	0x3d3b17cd	0.045676995
233	0xbc804fa1	-0.01566297
234	0x3b29786a	0.0025859126
235	0xbe330adb	-0.1748461
236	0xbebaaaf1	-0.36458543
237	0xbe44d44b	-0.19221608
238	0xbe78d609	-0.24300398
239	0xbebbdd33	-0.366922
240	0x3e876b81	0.26449206
241	0x3d650982	0.05591727
242	0x3e5af8f9	0.21384038
243	0x3e6ce29c	0.2313332
244	0x3e307af5	0.17234404
245	0xbcea6e21	-0.028616967
246	0xbdc03a22	-0.09386088
247	0xbd15db0f	-0.036585864
248	0x3df242ec	0.118291706
249	0x3de06bce	0.10958062
250	0x3e315a5d	0.17319627
251	0x3b3f9924	0.0029235566
252	0x3d7718a5	0.060326237
253	0xbb8f19cd	-0.0043670894
254	0x3cf22731	0.029559704
255	0x3d840e06	0.06447987

fc1.bias f4 [64]
0	0x3d86c108	0.065797865
1	0x3cb5084e	0.022098687
2	0xbc9e3939	-0.019314395
3	0x3dc96cdc	0.098352164
4	0x3d8e1179	0.069369264
5	0x3aa6f30e	0.0012737231
6	0x3dde3c83	0.108513854
7	0xbca5f160	-0.020256698
8	0xbd3202ff	-0.04345989
9	0xbc9c3bb9	-0.019071447
10	0xbd5041d3	-0.050844025
11	0x3e6f1e49	0.23351397
12	0xbc331a1b	-0.010931517
13	0xbc39b9ca	-0.0113357995
14	0x3dc2d3a4	0.095130235
15	0x3e46e45b	0.19423048
16	0xbcb2748b	-0.021784088
17	0xba03b86c	-0.00050247344
18	0x3dcb59ac	0.09929213
19	0xbd0fe501	-0.035130505
20	0x3e06743a	0.13130274
21	0xbd3e3043	-0.046432745
22	0x3e2fbb19	0.17161216
23	0x3cfa9a21	0.030591073
24	0xbe17e4c3	-0.1483336
25	0xbd26f18f	-0.040757712
26	0xbcbcd32c	-0.023049913
27	0x3ca545a1	0.020174803
28	0x3e3fa805	0.18716438
29	0xbcdfc266	-0.027314376
30	0x3d3ede2d	0.046598602
31	0xbd0e64ea	-0.034764208
32	0x3e06b7f6	0.13156113
33	0xbd358864	-0.044319525
34	0xbd429823	-0.04750837
35	0xbb898cdf	-0.0041977013
36	0xbc705ca6	-0.014670527
37	0x3e7be1e5	0.2459789
38	0x3ebb4b4a	0.36580878
39	0x3e14210a	0.14465728
40	0x3dce4c05	0.10073093
41	0x3bb20702	0.0054329643
42	0x3dd74764	0.105116636
43	0xbd8dcdca	-0.06924017
44	0xbd5b3baf	-0.053523716
45	0x3e637c04	0.22215277
46	0xbcc0e797	-0.02354793
47	0xbdd92395	-0.1060249
48	0xbcf398af	-0.029735891
49	0x3e7d45a8	0.24733603
50	0x3e3397f2	0.17538431
51	0x3e46d2e7	0.1941639
52	0x3c638c69	0.013888457
53	0x3e08c8c4	0.13357836
54	0x3e8f347d	0.27969733
55	0xbceacd86	-0.028662454
56	0xbcfb881f	-0.030704556
57	0xbcb5e26c	-0.022202693
58	0xbcbc2aba	-0.022969592
59	0x3ddd4073	0.10803308
60	0x3da1eb02	0.07906152
61	0x3e4e8cb7	0.20170866
62	0xbd0c16df	-0.0342015
63	0xbd654c09	-0.055980716

fc2.weight f4 [10, 64]
0	0x3e197f26	0.1498991
1	0xbb960d6e	-0.0045792377
2	0x3df713f2	0.12064351
3	0xbe2753e7	-0.163406
4	0xbe9d0137	-0.3066499
5	0xbced695c	-0.028980903
6	0x3de8f85c	0.11375496
7	0x3e2532b3	0.16132621
8	0x3c99f02f	0.018791286
9	0xbdac420b	-0.08411034
10	0x3e217f2f	0.15771173
11	0xbea99714	-0.33123076
12	0x3e223d89	0.15843786
13	0x3d81707d	0.063202836
14	0x3e002197	0.12512814
15	0xbd5d5020	-0.05403149
16	0x3d1205de	0.035650127
17	0x3dedd799	0.116133876
18	0x3e0fdc23	0.14048819
19	0xbdb14c2d	-0.086571075
20	0xbd3397c0	-0.043845892
21	0x3d8e6a50	0.06953871
22	0xbda6a184	-0.081362754
23	0xbef7a1e7	-0.4836571
24	0x3d86ead2	0.06587757
25	0xbe06d70a	-0.13167968
26	0x3e42eb78	0.19035137
27	0x3b20f57a	0.0024560378
28	0xbe8236a9	-0.25432327
29	0x3d14fd13	0.036374163
30	0xbe883a56	-0.26607007
31	0x3d0ec2f5	0.034853894
32	0xbd3a6ff4	-0.045516923
33	0x3d36d887	0.04464009
34	0x3d7c8e6a	0.061659254
35	0x3daf5240	0.0856061
36	0xbd193bc4	-0.037410513
37	0x3e492461	0.19642784
38	0xbdc50b3d	-0.09621284
39	0x3e0bb199	0.13641967
40	0xbd47adf0	-0.048749864
41	0x3c05f9a7	0.008177198
42	0xbe66e870	-0.22549605
43	0xbde02b54	-0.10945764
44	0xbda3fbce	-0.08007012
45	0x3dce59a0	0.10075688
46	0xbdc876cf	-0.09788286
47	0x3d0f8e4e	0.03504782
48	0x3d8291ab	0.0637544
49	0xbe99c7b0	-0.30035162
50	0xbe2fde1c	-0.17174572
51	0xbe50cb7b	-0.20390122
52	0xbb4c7d12	-0.0031202477
53	0x3e35e4ad	0.17763014
54	0x3d9d5016	0.07681291
55	0xbdca8688	-0.09888941
56	0x3de07f30	0.10961759
57	0xbd6ce258	-0.057833046
58	0xbda05ba5	-0.0782998
59	0x3e47c843	0.19509988
60	0xbe1cfb97	-0.15330349
61	0x3ca9293c	0.020649545
62	0xbd9b7984	-0.07591537
63	0xbdadd1b6	-0.08487265
64	0xbe6efaa2	-0.23337796
65	0x3ebd106b	0.36926588
66	0x3dd7db52	0.10539879
67	0xbde50a52	-0.11183609
68	0x3e66df34	0.22546083
69	0x3d9cfb33	0.076651
70	0xba1b39f2	-0.0005921415
71	0x3d4d5ec6	0.05013921
72	0x3d2ae79a	0.04172478
73	0x3dbad2c3	0.09122231
74	0xbe7622fb	-0.24036781
75	0xbdfdfaf4	-0.12401381
76	0xbea93428	-0.33047605
77	0xbd5f4b04	-0.0545149
78	0xbe06adfd	-0.13152309
79	0x3ddfd0ac	0.10928473
80	0xbc387185	-0.011257534
81	0xbdb3ec2e	-0.08785282
82	0xbd17a477	-0.03702208
83	0xbbec0786	-0.0072030453
84	0xbc3f3419	-0.011670136
85	0x3cc0606e	0.023483481
86	0xbeb97790	-0.3622403
87	0xbe0ed0d2	-0.13946846
88	0x3e6af843	0.22946267
89	0xbd3dcae5	-0.046336073
90	0x3d463496	0.048389994
91	0x3e039b3d	0.12852187
92	0xbe9379ea	-0.2880395
93	0x3d89f5f8	0.06736368
94	0xbe6bd00d	-0.23028584
95	0xbdd9aa5a	-0.10628195
96	0xbe10a342	-0.14124778
97	0x3d707813	0.05870826
98	0xbdb14a67	-0.08656769
99	0x3e2ef938	0.17087257
100	0x3d584c83	0.052807342
101	0xbe9e3708	-0.3090136
102	0xbeb88a45	-0.3604299
103	0x3e7d5f6b	0.2474343
104	0x3e5c1b8c	0.21494883
105	0x39be9225	0.0003634851
106	0xbda2be77	-0.079464845
107	0xbd6b7e0c	-0.057493255
108	0xbdabb1b6	-0.08383505
109	0x3d5d8d75	0.054089982
110	0xbd02a2aa	-0.03189341
111	0x3c48c045	0.012252872
112	0x3c888251	0.016663702
113	0xbe67431b	-0.22584192
114	0x3d66ab41	0.056315664
115	0xbe3cec24	-0.18449455
116	0xbde661f8	-0.11249155
117	0xbea35a5f	-0.31904885
118	0xbe7bda35	-0.24594958
119	0x3e17c10c	0.14819735
120	0x3d2b54cb	0.04182891
121	0xbcebcc92	-0.02878407
122	0x3c6027f4	0.013681401
123	0xbea40d88	-0.32041574
124	0x3dab3290	0.083592534
125	0xbb21613a	-0.0024624602
126	0x3e396fce	0.18109056
127	0xbd46e1be	-0.04855513
128	0x3e3a5641	0.18196966
129	0x3e3dedf8	0.18547809
130	0x3e2089eb	0.15677612
131	0x3e24c264	0.16089779
132	0xbd8f498d	-0.069964506
133	0xbcfb81fa	-0.030701626
134	0x3dd1025e	0.1020553
135	0xbe37c306	-0.1794549
136	0xbd4820e5	-0.048859496
137	0xbdb43eda	-0.088010505
138	0x3e26e42f	0.16297983
139	0x3dda853b	0.10669943
140	0x3e18c086	0.14917192
141	0xbde68f51	-0.11257804
142	0xbd964d8e	-0.07339011
143	0xbdef500a	-0.11685188
144	0xbdec62b5	-0.11542264
145	0xbd86488c	-0.06556806
146	0xbe69aca8	-0.2281977
147	0x3dc61346	0.09671645
148	0x3d3fe9d4	0.046853855
149	0xbd9d1169	-0.07669336
150	0x3e1f0d96	0.15532526
151	0xbeddca46	-0.43318385
152	0x3d1dcf9b	0.038528066
153	0xbab04164	-0.0013447222
154	0xbd5295b2	-0.05141229
155	0xbd7d981d	-0.061912645
156	0x3b5fef73	0.0034169822
157	0xbdb9b26a	-0.09067233
158	0x3eb0bdfb	0.34519944
159	0x3dafe84a	0.085892275
160	0xbd9fd3bf	-0.07804059
161	0xbdb70633	-0.08936729
162	0x3d291336	0.041278087
163	0xbd7f3964	-0.06231059
164	0xbd2452b1	-0.040117923
165	0x3da60d54	0.08108011
166	0x3d3fad24	0.04679598
167	0xbe9b44b9	-0.3032587
168	0xbba2708c	-0.0049572643
169	0xbba734d2	-0.005102732
170	0xbe310cb4	-0.17290002
171	0xbc51f141	-0.012813867
172	0xbd7506fb	-0.05982111
173	0xbb1122f0	-0.0022146069
174	0xbc880283	-0.01660276
175	0xbd4d4230	-0.05011195
176	0xbe0944f4	-0.1340521
177	0xbc2ab5d1	-0.010419325
178	0xbe841ad4	-0.25801718
179	0x3be81a1c	0.0070831906
180	0x3c6eff18	0.014587186
181	0xbe7a7863	-0.24459986
182	0xbda16f20	-0.078825235
183	0xbd8a886b	-0.06764301
184	0x3cb9e8f8	0.022694096
185	0xbd4c37f1	-0.049858037
186	0x3d8da425	0.06916074
187	0x3df1a441	0.11798907
188	0x3d9eca14	0.07753387
189	0xbdc10332	-0.094244376
190	0xbdda8f90	-0.106719136
191	0x3d7e8a6d	0.06214373
192	0xbdcbad56	-0.099451706
193	0xbe0b8907	-0.1362649
194	0x3d160646	0.036627077
195	0x3d95d17d	0.07315347
196	0x3ded73ac	0.11594328
197	0xbd6fee1f	-0.0585767
198	0x3de995c2	0.11405517
199	0xbe5582ca	-0.20850673
200	0xbd36d48c	-0.044636294
201	0x3dc095de	0.09403585
202	0xbdd96b63	-0.106161855
203	0x3de4dbb2	0.11174716
204	0x3d20e42a	0.039280094
205	0x3d361da0	0.044461846
206	0x3e169f1f	0.14709137
207	0xbe86e9fd	-0.26350394
208	0x3cfa5f36	0.030562978
209	0xbdd7b947	-0.10533386
210	0x3e0e7310	0.1391108
211	0x3de1ae91	0.11019624
212	0xbe47d464	-0.19514614
213	0x3bb98bd2	0.00566242
214	0xbd099726	-0.033591412
215	0xbe0b7e55	-0.1362241
216	0xbdad3159	-0.08456678
217	0xbcab45d3	-0.020907318
218	0xbe85a797	-0.26104423
219	0xbdc7193e	-0.097216114
220	0x3d945620	0.072429895
221	0xbdb08176	-0.08618443
222	0xbd77b6c8	-0.06047705
223	0x3c814487	0.015779747
224	0xbc2daf62	-0.010600897
225	0xbdc22e10	-0.09481442
226	0xbdc30158	-0.09521741
227	0x3cb526c0	0.022113204
228	0xbd201e99	-0.03909168
229	0xbda14d44	-0.078760654
230	0x3d84dac7	0.06487041
231	0x3cbd83dc	0.023134165
232	0xbeb59d5c	-0.35471618
233	0x3dfb7136	0.12277453
234	0xbcd18989	-0.025578277
235	0xbdd8f1d6	-0.105930015
236	0xbcd974b8	-0.026544914
237	0xbc9aaf5d	-0.018882448
238	0xbd766c39	-0.060161803
239	0x3d09e200	0.033662796
240	0xbd57f4e0	-0.052723765
241	0x3e1a50d5	0.15069897
242	0x3dfd0471	0.12354363
243	0x3df66446	0.120308444
244	0xbd0d5fe4	-0.034515277
245	0xbcb157b1	-0.02164826
246	0xbeb7b150	-0.35877466
247	0xbe62f94f	-0.22165416
248	0xbc85e304	-0.016343601
249	0x3d70fb07	0.05883315
250	0xbdfeaaab	-0.12434896
251	0xbd8d4e98	-0.06899756
252	0x3ca3da54	0.020001568
253	0x3ded537a	0.115881875
254	0xbde1575b	-0.1100299
255	0xbcc580e3	-0.02410931

fc2.bias f4 [10]
0	0x3d87d38d	0.06632147
1	0xbe1f1660	-0.15535879
2	0x3cf8954c	0.030344628
3	0x3cf6c9e7	0.030125571
4	0x3da27434	0.0793232
5	0x3e02dad3	0.12778787
6	0x3d4712e4	0.048602
7	0xbd549d9f	-0.05190813
8	0x3dd1c8ce	0.102433786
9	0xbd5cfdc9	-0.053952966
